theta2_opt_28-79.npy (npy, 2208 bytes, 1 tensors)

array (column-major) f8 [10, 26]
0	0xbfa2505157f7dd21	-0.0357690257914618
1	0xbfcea58aa2802950	-0.23942692694283574
2	0xbfcd4d223981c3c0	-0.22891643341020362
3	0xbfb67352b4d499be	-0.08769719042593402
4	0xbfbf77332cc214ce	-0.12291259615638525
5	0xbfd1f1f4cc95ab11	-0.28039283732384584
6	0xbfd6dace5d76bee7	-0.35710486533478875
7	0xbf853a30d9ccbc98	-0.010364896437378854
8	0xbfc97fc6a0961c51	-0.19921191064006163
9	0xbfc068705b71d124	-0.12818722214763867
10	0xbfa25eefac71a29e	-0.03588055591609883
11	0xbfc00f6e1a3762c0	-0.12547088890166513
12	0xbfc117b68ac4b698	-0.13353616500665022
13	0xbfc1593adc3edf84	-0.13553558115176767
14	0xbfa8a3060f9d9605	-0.048118771940419726
15	0xbfca557cb7e9349d	-0.20573386173274325
16	0xbfc46f23bc8b6a4b	-0.15964171129492608
17	0x3faaaab1291defa0	0.05208352686801665
18	0xbfd1192c6d8f0504	-0.26716147135819335
19	0xbfc5a2de5351f81c	-0.16903285091751818
20	0xbfb150f7d02f47fa	-0.06764172394403536
21	0xbfc41e5ce599b805	-0.15717660151443638
22	0xbfc233d9dd89861f	-0.14220736806150655
23	0xbfc397147f20e7c4	-0.15304809768150396
24	0xbfbf46bf62ce9563	-0.12217327272681681
25	0xbfc9dc36557b9abc	-0.2020328442951803
26	0xbfc018fa7e2d749e	-0.12576228295339303
27	0x3fb5df7b83ea8d85	0.08544132204638373
28	0xbfc546f6a53bcded	-0.16622813289687546
29	0xbfc63316da23740a	-0.1734341206673949
30	0xbfc4dccc39843709	-0.16298821266575939
31	0xbfcf79aaaae3b148	-0.24590047210893773
32	0xbfce366ed01ba37d	-0.23603615914842271
33	0xbfb7b45a522a182e	-0.09259571557967725
34	0xbfd07d687ce78519	-0.25765430638974035
35	0xbfcb974ce81091c1	-0.215554822266439
36	0xbfbfd89efca29f1d	-0.12439912479260014
37	0xbfc012e3b1d511de	-0.12557645972459758
38	0xbfcf63138f75ea9b	-0.24521107201492928
39	0xbfc72f99e908f41f	-0.1811401737085427
40	0x3fa2b741aa0f97b8	0.03655438614786938
41	0xbfc2af42fa3010b3	-0.14597356048773732
42	0xbfccbf09e6707d38	-0.22458003761219358
43	0xbfb155c0b89a617b	-0.06771473414335631
44	0xbfd09a3d81f9fc5b	-0.25941407864588023
45	0xbfc0a96b7b0844de	-0.13017028338848652
46	0xbfcfae0b3a411d7f	-0.24749889702273362
47	0xbfc29c93b210a781	-0.14540334887106712
48	0xbfc4bd7443c55906	-0.1620316821014926
49	0xbfc9a9b832b7d7f1	-0.20049192882987613
50	0xbfb2b71a9428123c	-0.07310644261458149
51	0x3fac6d2f4e9afbe4	0.055520513863932114
52	0x3fad169ad545e2fc	0.05681308606557953
53	0xbfba03cd0ffe22c7	-0.10162049904296132
54	0x3fb5b1089fcb4721	0.08473256970617317
55	0x3fbad034320163ca	0.10473943920932452
56	0x3fa60c681e3a6a5c	0.043063405694927254
57	0x3f8ab802d8866cfb	0.013046285851308506
58	0x3fb5bf50de4fedf9	0.08495049884361795
59	0xbf912852152eca0e	-0.016755373518842424
60	0xbfaa6fcde139b467	-0.0516342484887467
61	0xbfd280d758faa29f	-0.2891138428626991
62	0xbfca479127be9530	-0.2053090519013181
63	0xbfbefa05f3b74edf	-0.12100255203341302
64	0xbfd15f915087195c	-0.2714579855350132
65	0xbfcd79bd77015800	-0.23027771292498755
66	0xbfc1b05692ecc3a2	-0.13819391416612087
67	0x3faad579e75e0ce0	0.052409944050873625
68	0xbfd04ffab437220f	-0.25488154982716166
69	0xbfc20a12014c2bcc	-0.1409323221526776
70	0x3fb928a2b9ce97ba	0.09827630077651764
71	0xbfcb3fe1ec284151	-0.2128870394813114
72	0xbfc9b3eb0b508169	-0.20080316593613226
73	0xbfc4a09983f3c2db	-0.16115111296632886
74	0xbfce0c385ae30f18	-0.23474792898024854
75	0xbfbd07db1fb45490	-0.11340112232240274
76	0xbfb6f02bde635f69	-0.08960222415350717
77	0xbfb5095a1126863f	-0.08217394751275096
78	0xbfc2259f5ef7f1ba	-0.14177314889083253
79	0xbfacb330a7d98951	-0.0560546116728512
80	0xbf6971bae382f057	-0.003105988518738594
81	0xbfd2df56c0c391d0	-0.29488152336696505
82	0xbfbd500e7da97b97	-0.114502816848001
83	0xbf69dff2e6120ab4	-0.003158544932888441
84	0xbfca151285837116	-0.20376807707987926
85	0xbfccf19083dfb2a4	-0.2261219638743529
86	0xbfd61086a394d374	-0.34475866293660506
87	0xbfb0ff4b76749140	-0.06639548913932902
88	0xbfc0ea133d3e7ddb	-0.1321434067767616
89	0xbfd0c450f7947a7f	-0.2619821946881657
90	0xc00651adbc2ef88a	-2.7898821546396606
91	0x3fdb83d679e5e2cb	0.42992174057102933
92	0x3fda2be454c9e109	0.4089289501203131
93	0x3fdfce5c7f2427b7	0.49697029510627594
94	0x3fd3b6107980d364	0.3079873262934625
95	0x3fd549bc7d6a8519	0.3326255059019601
96	0x3fdcbb2f77f01873	0.4489248915928165
97	0xbfeb01d69688a3db	-0.8439743938553151
98	0x3f88ebc97ad85bb7	0.012168478070675321
99	0x3fe14d3e1c38a617	0.540679030532547
100	0xbfb0f7b62f628b02	-0.06627977997645121
101	0x3fb00d73d97d6b39	0.06270526943027911
102	0x3faf03f57958306b	0.06057707887893645
103	0xbfaf34c4903aedbb	-0.06094946156141697
104	0x3f997d988f017d2c	0.02489317295873865
105	0xbfa39e1350d1f865	-0.038315394988772046
106	0x3fb8c11a2df10209	0.09669650670640108
107	0x3fb03c2bd67936ca	0.06341814027947659
108	0x3f88473ab8c8947c	0.011854609264512421
109	0xbfb39c7f398b351c	-0.07660670428159161
110	0xbfb2fa1c0f886177	-0.07412886981217591
111	0xbfc2c2e054511171	-0.14657215230011958
112	0xbfbb2248d93f1a53	-0.10599189094419019
113	0xbf8c4ce2f0e318ac	-0.013818524338045833
114	0xbfcf795ddd44d039	-0.2458913164533685
115	0xbfc7a7e31f9369f3	-0.1848110107592472
116	0xbfc637e9a915f628	-0.1735813212980457
117	0xbf91036b9b27c387	-0.016614610047273295
118	0xbfaf303fd816f7f4	-0.060914988639964834
119	0xbfceb5b0597ce59e	-0.23991970414662672
120	0xbfc29c713f25b2fe	-0.14539924224245476
121	0xbfc9694ad7ab4633	-0.1985257676192745
122	0xbfc06431b363e150	-0.1280576826027393
123	0xbfc4fb431e2d0d08	-0.16391791318356064
124	0xbfc989cad30b357a	-0.19951758675453474
125	0xbfcb7232116830f8	-0.21442247247649227
126	0xbfd4b001c310f5eb	-0.3232426075881835
127	0xbfb030f57a1ee917	-0.06324705344642144
128	0xbfc124725068a001	-0.13392476011472357
129	0xbfd1ab2a6208a9af	-0.27607211660019976
130	0xbfb73bb3db9f7a5a	-0.09075473892105759
131	0xbfd170f67a38f319	-0.2725197022989945
132	0xbfc26b628b04d9e5	-0.1439021281054941
133	0xbfb44bf7fe6bb02f	-0.07928419076387237
134	0xbfc15f807d2a52c2	-0.135726986995584
135	0xbfcfc0981d5622ab	-0.24806500847286847
136	0xbfb53e3b39f4b6f1	-0.08298082508983008
137	0x3fbb66589dbf7760	0.10703042842166388
138	0xbfc191d75cd61ab3	-0.1372632220556703
139	0xbfcdaf8b32ae55c2	-0.23191966986330043
140	0x3fb10441d55750e7	0.06647120913050096
141	0xbfbaee4b1535df9a	-0.10519856708367428
142	0x3fb884f41971c078	0.09577870961379797
143	0x3f94eb1deaf7d4b2	0.02042814966803936
144	0x3fbb1ff45de86ef2	0.10595633785890948
145	0x3fb97f19db5bdb17	0.09959565740051023
146	0xbf9d4c7034f40d75	-0.028611901504530707
147	0xbfad3c7bcee74076	-0.05710207844424613
148	0xbfb637b6691223e4	-0.08678760590750262
149	0xbfb1d0824500daab	-0.06958784279491208
150	0x3fa1a5d7a7df66c4	0.03446840213991956
151	0xbf7c315ae26956a0	-0.006883006112351403
152	0xbfbb069615393e3f	-0.10556924837259717
153	0xbfa553b46e0dfe8e	-0.04165424197617283
154	0x3fab3911d7610d43	0.053169782201190084
155	0xbf4d4a54ed61b7d7	-0.0008938708003947093
156	0xbf9de570624a2579	-0.02919555282509154
157	0xbfa236553a7799e9	-0.035570777308567454
158	0x3f92f3a7cf5523f4	0.018507596997810752
159	0xbfb73ee38c7286f3	-0.09080335787669096
160	0xbf965377e92d9688	-0.02180278168397945
161	0xbfd0f46e1f6e9af8	-0.2649188334420809
162	0xbfcf552b57ed41c8	-0.24478666108417557
163	0xbf6f008a362d3c5c	-0.003784437126717983
164	0xbfca3e4d5bf2f242	-0.20502631177613934
165	0xbfd1753f2d7db7d2	-0.27278117601860885
166	0xbfcbf1849cc585a5	-0.21830804495679704
167	0xbfbbb5a00696148d	-0.10824012909695764
168	0xbfb8ec1bd1c0f3d0	-0.09735273238125264
169	0xbfc4f411213f3fec	-0.16369833110229537
170	0xbfaf0ece4d3ad00a	-0.060659834792574044
171	0xbfc4ebd140002365	-0.163446575403465
172	0xbfd16873efdffca0	-0.2720002977875513
173	0xbfc8a4db95dc4980	-0.19253105943114335
174	0xbfc749dde1b92ad9	-0.18194173356672286
175	0xbfd06b08e08c7340	-0.25653287819459436
176	0xbfd241a297125da7	-0.2852560496625877
177	0xbfbcf12c47c1f2c4	-0.11305500747580327
178	0xbfc8448c509e91a5	-0.1895919221543753
179	0xbfcc23a2c6f9b451	-0.2198375197944267
180	0xbf87ed8ba1925cba	-0.011683550709035696
181	0x3faf7faa9ccbc4c5	0.06152089275372811
182	0xbfb7a8b4b7f132f5	-0.09241799822593662
183	0xbfbe3f7fec0aeb44	-0.11815642845878666
184	0xbfa9515058e3ee09	-0.04944850049102107
185	0xbfbec02175d7a620	-0.12011918189059445
186	0x3fa39a1e2d71b150	0.038285201117875034
187	0xbfa8054b5ccd1015	-0.04691539295029671
188	0x3f858a111c4d6c6d	0.010517247844907563
189	0xbfb415a9506555b8	-0.07845552647389453
190	0x3fdaef5cec2c00ce	0.42085955680523746
191	0x3fe48f2c4eb23103	0.642477182105296
192	0x3fd0eb14c0bcacbe	0.2643482095906612
193	0xbffc447df50ad623	-1.7667216846433653
194	0x3fd5c4a4e148cfc1	0.3401272010844388
195	0x3fe5dbf6e12d4683	0.6831011198029987
196	0x3fe2126a408c7eb4	0.5647479305952943
197	0xbff82ce20fa89756	-1.5109577762281865
198	0x3f90e0c5ba5aeb5a	0.016482438563552783
199	0x3fcc3b05dd48362e	0.22055123619831946
200	0x3f9cd0de001ff78b	0.02814051509630348
201	0xbfcfb07b7ad6eba2	-0.2475733136942298
202	0xbfc9d866e2e42767	-0.20191656187699467
203	0xbfbb6175957f0f3e	-0.1069558610898271
204	0xbfc359ec0c9bc846	-0.15118170371676082
205	0xbfc07797166487a8	-0.12864960282700832
206	0xbfd6f37d1a33707a	-0.35861136969265994
207	0xbfc17de9e78992a0	-0.13665508084809108
208	0xbfae5087d64b2e9b	-0.05920814982309005
209	0xbfca9f4ce3222f4e	-0.20798646059517484
210	0xbfa96d007bd09300	-0.04965974341783941
211	0xbfbaad1dd87b41da	-0.10420404944603182
212	0xbfc7131eb41129b3	-0.18027099411331235
213	0xbfa1b037d7a98a88	-0.0345475626716239
214	0xbfb86edea82d3db3	-0.09544173818470973
215	0xbfc2f8dc567fb020	-0.14821962569783498
216	0xbf9b6e0fa0f88fc7	-0.026787037086378775
217	0x3faa9964d5d3cfb0	0.05195155248830419
218	0x3f9da812012c2488	0.028961449929771038
219	0xbfc9b47695cf781e	-0.2008198005195831
220	0xbfa3edbe4dad7563	-0.038923212988019505
221	0x3fa33ac8e418e009	0.03755786690129532
222	0xbfb6d6b0246a578a	-0.08921337975547608
223	0x3fa33228af840e0b	0.03749205725219092
224	0x3f6e426037b1f222	0.003693759846610926
225	0x3fa48f2e7559efb1	0.04015488798628953
226	0xbfc03a325a0ccd1a	-0.1267760219285286
227	0xbfb2a6c95b65caec	-0.07285746079814331
228	0x3f9ac3150c4ae0a2	0.026134804606699043
229	0xbf9d298f85be64a0	-0.028478853738850618
230	0xbfc3861a0b5aa93b	-0.15252996019746398
231	0xbfc053f79f2207f3	-0.12756247778094085
232	0xbfb73c41c50ec41a	-0.09076319752672682
233	0x3fa9952f4a26cc40	0.04996631412668551
234	0xbfc6e9a3d4d60189	-0.17900512592678933
235	0xbfcca254011921a2	-0.22370386174794726
236	0xbfd1ae1b51a2a189	-0.2762516305179124
237	0x3fac326d977b1e35	0.05507223581440394
238	0xbfb27b0664b10031	-0.07218971212660176
239	0xbfa44caf25611c57	-0.03964755374232059
240	0x3fa66518bcae3ac2	0.04374005606870447
241	0xbfa3c57b39cd650e	-0.038616038137386
242	0xbfb2adb41f90bd43	-0.07296300669326165
243	0x3f904b94250e5c34	0.015913309823727143
244	0x3fb301ee78f3e070	0.07424822285600086
245	0x3f99f8e1b43dfca7	0.025363470674616775
246	0x3fa92b27dbf17089	0.049157376860166364
247	0x3fa8e0ec6769768f	0.04859102976182072
248	0xbfbd78a26fe24e67	-0.1151219866899794
249	0x3fa2650f35c125fb	0.03592727214033783
250	0xbfb718abf1199910	-0.09022020946722287
251	0x3fbd7de29e632051	0.11520210615992822
252	0xbf511a0324943687	-0.001043799466347835
253	0x3fa7532c076edcc6	0.04555642691360044
254	0x3fb15869b068a645	0.06775532299857286
255	0xbf8955f1187d5087	-0.012370952186451468
