theta1_opt_28-79.npy (npy, 157128 bytes, 1 tensors)

array (column-major) f8 [25, 785]
0	0xbfbdcae7114841a8	-0.11637729808740593
1	0xbf9f066e6a600298	-0.030297971003167307
2	0xbf945513b6282153	-0.01985579299255964
3	0xbf8f116095966658	-0.01516986328606433
4	0xbfb770eec6cc239d	-0.09156696656658743
5	0x3fbe1a0a4bec9ddb	0.11758484223957259
6	0x3fbbd649cd5e716c	0.10873852981462101
7	0x3fbab83004010fb3	0.10437297914273706
8	0x3f84a3d503135113	0.010078109890323128
9	0xbfb62c8d66bf6a40	-0.08661731489647995
10	0xbf9f344dbdad4968	-0.030472960187873183
11	0x3fad4f651e442fbc	0.057246360725997175
12	0xbfacfba16082ffb6	-0.056607287436690454
13	0x3f6347bea6e4cf67	0.0023535464926229157
14	0x3f877651b1469ce7	0.011456144545105974
15	0x3fb06aa920562f5a	0.06412751235455741
16	0xbfbaeff0201e5193	-0.10522366317883884
17	0xbfb6bd36a3a385d0	-0.08882466788374832
18	0x3fba82117b217129	0.1035471845256707
19	0x3fb6bab45b5300a0	0.08878638486476342
20	0xbfb20d7166570b14	-0.07051762341056317
21	0x3f9f209818c88b0c	0.03039777423158356
22	0x3f89adeb79dd2387	0.012538756996620893
23	0xbfb5bb9c7450649f	-0.08489396896074418
24	0x3fbd93b5333f9624	0.11553509236508624
25	0x3fa67f2beb6b5954	0.043938992011748695
26	0x3fb354924d29e2d6	0.07550920852544193
27	0xbf9a20c9e6d62693	-0.0255157038823542
28	0xbfbe518433e01942	-0.11843134180535222
29	0xbf92ca21ca87e9e1	-0.018349197374826324
30	0x3fb63ab80ac87993	0.08683347953090097
31	0x3fb7ba3b15c03663	0.09268540650392647
32	0xbfa13295bb300730	-0.03358905706410409
33	0x3fa22d09103abaa0	0.03549984286415975
34	0x3fa8f9241f706dc5	0.04877579578188888
35	0xbfba47aeb2d89983	-0.10265628687247923
36	0x3fb2cf9d1d6d112e	0.07348043411645186
37	0x3f710ce17d57eefb	0.004162674731101874
38	0x3f7fd09e245a9b12	0.007767312757698945
39	0xbf9c7d9a8642b926	-0.027822889752024647
40	0xbfa250b204592ad1	-0.03577190688209487
41	0x3fb5cbeb82386c16	0.0851428215905091
42	0xbf69d571a0f800f4	-0.0031535357773010367
43	0x3f9bb642a7947c13	0.02706245563342342
44	0xbfbd1956e525d7bb	-0.11366789907864831
45	0xbf9705b0aa4ff4b3	-0.022482643504180454
46	0xbf9499348dde2993	-0.020115681799816775
47	0x3fad701893a8cf58	0.057495849633055485
48	0x3fa8597181ba4fa6	0.04755739887801207
49	0x3fa99549fa302344	0.049967109480411526
50	0x3fa2cbdf367db33b	0.03671166935132538
51	0xbfa32023114b2008	-0.03735456071950699
52	0x3fa89cae6eda1f3a	0.04807038405584625
53	0x3fb9287418517c42	0.09827352136333992
54	0xbf89b721c7b79cc5	-0.012556327731500958
55	0xbfaea4eb4effa26c	-0.059851983445530305
56	0x3fbad7eac7e0947d	0.10485713367286738
57	0x3fa16b47b0d6f1ab	0.03402160676657514
58	0xbfb5f328d31af417	-0.08574156907975837
59	0x3f9af2c4823ea7d7	0.026316709947117402
60	0x3fa2aab59416c32e	0.036458658530483454
61	0x3fb1c8c8dce1e72d	0.06946998016965429
62	0xbfb88dcd10eac846	-0.09591371214881503
63	0x3f9b4c9bc7a92459	0.026659425793955503
64	0xbfaacd32d290e4ff	-0.052346790508133616
65	0x3fb52974b871b967	0.08266381743462646
66	0x3fab078fd251ad61	0.05279206697818029
67	0xbfbe1d5b61d8d860	-0.11763545168727907
68	0xbfbe15168e213ee3	-0.1175092789646857
69	0xbfb7e50a925d8e13	-0.09333864282012198
70	0x3f99e4654c6e977e	0.025285322942770964
71	0x3fb2614c99c4fdcd	0.07179716829431655
72	0x3facdfc240459da3	0.056394644113250146
73	0x3fabec66de7757e6	0.054537977844731064
74	0xbfaabd13bc74ecc4	-0.05222379374978339
75	0x3f9b5cf795d1de7c	0.02672182895591256
76	0xbfb8170e59b6d70b	-0.09410180750168366
77	0x3fb6f8e8b5b54e4e	0.08973555027233113
78	0x3f9a7e7b18affce7	0.02587311113529447
79	0x3fafd3d1308d30b2	0.0621629115836141
80	0xbfb66da1746f0302	-0.0876103314649406
81	0x3f9dc771d0d2cf12	0.029081133242200137
82	0xbfb60e292979e1ed	-0.08615357649421869
83	0xbfb1ce1776f360df	-0.06955095914907215
84	0xbfb7e44ce52aff47	-0.09332733721657603
85	0x3fb6c6899d96d8cd	0.08896694276231472
86	0xbfb98351ba995f01	-0.09966002278940424
87	0xbfb60936918176eb	-0.086078081630571
88	0xbfa5a88396aa7569	-0.042301284925296674
89	0xbfb965d6cf5c278e	-0.09921019136905171
90	0x3fbb244bdcaffa7f	0.10602258813740127
91	0x3f81710c819ffb3e	0.008516404825056886
92	0xbfb245ec8370900c	-0.07137945374466897
93	0x3fb517c840a0b13c	0.08239413812470259
94	0xbfa8ffca066cca9c	-0.048826516422555616
95	0xbf9f7a461c668bff	-0.03073987530082078
96	0xbfb5e758e5289853	-0.08556132883731608
97	0x3fb5fa23513a4cec	0.08584805234049825
98	0xbfb87e078b56b387	-0.09567305709670225
99	0xbfa05278b93c2dde	-0.03187920819444988
100	0x3f9df3b0d84a9b39	0.029249919129735267
101	0x3fbcd1db3b84ac19	0.112577154188941
102	0xbfb936f32b90f6d7	-0.09849471868161729
103	0x3f99c6799678d07c	0.025171184357717355
104	0x3fbbf5d1a968b769	0.10921965013468839
105	0xbfb719bc456518e6	-0.09023644155704211
106	0x3fbb904933385f61	0.10767037868970199
107	0xbf9666f05dd4bda5	-0.021877055861464396
108	0x3faf96c9ef6794e4	0.0616973023168528
109	0xbfb7b420dec656c0	-0.09259229124867385
110	0x3fae948497a85891	0.05972685195244865
111	0x3fb1867fa70efe61	0.06845853642061563
112	0x3f7bc565391a066d	0.0067800478005907
113	0xbfa600af3d2cc5f0	-0.04297397252811297
114	0x3fba04419676ad40	0.10162744449069283
115	0x3fb9be5dd203b10d	0.10056101205163177
116	0x3fbf169a4c1d0c9c	0.12143864019621947
117	0x3fbb841891972e2d	0.10748437456566569
118	0x3fb95f0282bb2cbb	0.09910598460844515
119	0x3fba45bd8582b35d	0.10262665280852219
120	0x3f70f5abac44e1f1	0.004140539739005509
121	0xbfb0cfffeed5397c	-0.06567382412797501
122	0xbfb0bb466f8bb4c9	-0.06535759185108526
123	0xbfb9270fe9ab1f0f	-0.09825229124828304
124	0x3f75a57e8cbbe614	0.005284780821733576
125	0x3f9a518fc195b399	0.025701757612683094
126	0xbfb971afed553127	-0.09939097923524241
127	0xbf961d5abb5273f3	-0.021596353228790787
128	0x3fa82096a7c2fdb6	0.04712363050338857
129	0xbfbbf2bdc85d5e8c	-0.10917268888203518
130	0xbf6aad0bf844d7d0	-0.0032563432488599067
131	0x3fbc9cad1c47c63a	0.11176568928183253
132	0xbfa8ead5e7b5d4f7	-0.04866665318960799
133	0x3f8cad9cc4b3ca21	0.01400301432884016
134	0x3fadcdb359e829e8	0.058209995961153116
135	0xbfb4f2bff9819e1b	-0.08182906953299389
136	0xbfa3fe7262c469cb	-0.03905065017370964
137	0x3fb1f4ad6aee61ec	0.070139731031652
138	0x3fb3fa435c3efa3b	0.07803746225452184
139	0xbfb7657b89007de0	-0.09139225096486525
140	0x3f8b3fb417ecf6ed	0.013305098514702485
141	0xbfb97000ed71eaf1	-0.09936528965947013
142	0x3fab5272cd72771e	0.053363406733508464
143	0x3fb8dafbc3872aeb	0.0970914223063734
144	0x3fbc5ebd13c4b238	0.1108205960524139
145	0x3fb80422e068e1e5	0.09381311396362653
146	0xbfb0fbd268add52c	-0.0663424974025772
147	0xbfc1573a55874800	-0.13547448326295353
148	0xbfb86cb7f8b08d4c	-0.09540891477131658
149	0x3fb13f7a84e4fef1	0.06737485641951559
150	0xbf9cb2aeae9cfa18	-0.0280253690791544
151	0xbfb6508436d770ff	-0.08716608370690791
152	0x3fb5e1b30749e75e	0.0854751484675069
153	0x3f88060125ab7da8	0.01173020263871545
154	0xbfb3e66d0830caca	-0.07773477029767686
155	0x3f9f223b97a3f248	0.030404025202175583
156	0x3f8b240fa6dcbd16	0.013252374915821135
157	0x3fc037b91f41ec91	0.12670053507085702
158	0xbfb20b975ef71e36	-0.07048936909188161
159	0xbf7dc2cfc82bdd32	-0.007265864990351022
160	0xbfb8b7154c603791	-0.0965436278786156
161	0xbfb05706a72ecc52	-0.06382791120158629
162	0xbf89850e4c0d1f00	-0.01246081513967523
163	0xbfbb0d53e7cfa532	-0.10567211541605984
164	0x3fa664caae5cd6bd	0.04373772982073152
165	0x3fb9e9a9804e5e19	0.10122165091012682
166	0x3fb49a2eeeaf4f25	0.08047765090242061
167	0xbfbc84e705916da1	-0.11140293012561255
168	0x3fa143d99c65fc17	0.03372077974471937
169	0x3f9fe22e6a02d4ba	0.03113625070610191
170	0xbf6793ad0bc7e5d4	-0.0028780345730836463
171	0x3fb9bd923160f2e8	0.10054887490782571
172	0xbfb6709632015d89	-0.08765543671449029
173	0x3f9df12c2b085d68	0.029240312696939524
174	0x3fb5956844bbb229	0.08431102445656137
175	0xbfa1494f1b78ae7e	-0.03376242838234321
176	0x3fb072a814aa1838	0.06424952034476028
177	0xbfb9912dd85b37c9	-0.09987150699745863
178	0x3fb76d913680cf9a	0.09151561337131256
179	0x3fb63baead35314d	0.08684818009095814
180	0x3fbda0d28c602d09	0.11573520590916443
181	0x3f2dc551e98d6885	0.00022713303476501828
182	0x3fbdcd98cf8ceb87	0.11641840998792762
183	0xbfab6da424b128ab	-0.05357087085629194
184	0x3fb2872cf88759db	0.07237511699290826
185	0xbf8725516b3039ab	-0.01130164726603485
186	0x3faf3717126f7f00	0.06096717929881201
187	0x3f908eb49cd67d74	0.016169378349898136
188	0xbfbb7d460ae5c7f6	-0.1073802734952379
189	0xbf7bcf3be92d261b	-0.006789430643786366
190	0xbfb6a460ccae6153	-0.08844571110819759
191	0x3face10bb210e2cb	0.05640446232468362
192	0xbfb516b60d9ec2e1	-0.082377794575915
193	0xbfb10a8769a95e2b	-0.06656690911892642
194	0x3fbaeabb0862ec77	0.10514420466181372
195	0x3fbba8fa419a0991	0.10804714299778186
196	0x3f99bf4d9ae9949e	0.025143826084236147
197	0x3fb1e66d9138d2a2	0.06992230220277887
198	0xbfbc90371d0befa2	-0.1115755506434071
199	0xbfb3d4257909b3d0	-0.07745584683443885
200	0x3fb8d07923c3dbb4	0.09693104861422236
201	0xbf0fa5c112cf458d	-6.036277259336828e-05
202	0xbfb403794e2628fe	-0.07817800672470196
203	0x3f9d8f8ed83275ca	0.02886794275820196
204	0x3fa4e7809e77c8eb	0.04082872328207706
205	0xbfb0fe490f515bea	-0.06638008712739887
206	0xbf9b58f1b8bf82aa	-0.02670648279297675
207	0x3f9349e566391dc9	0.018836578716472183
208	0xbfb49734af3e66e3	-0.08043221739208266
209	0x3fb67755ffacf3b1	0.0877584218223564
210	0x3f91174d549cced0	0.016690452851618798
211	0xbf929f1363199df6	-0.018184950755680128
212	0x3fb31ced56caba88	0.07466014260237774
213	0x3fb2b21d8158f6ac	0.0730303231038884
214	0x3f8d9f313f3896a5	0.014463791601041118
215	0x3f9d7284dd3099c1	0.028757167816502397
216	0x3fb3f3160bff1d11	0.07792794983753405
217	0xbfae570cf010e956	-0.059257892899455086
218	0xbfa0518e6cc6dd62	-0.03187222555009829
219	0x3faab9976e0fd9db	0.05219720095185539
220	0x3fb85699d5a87352	0.09507142511615754
221	0xbfa35086f1a3e465	-0.03772374820432204
222	0x3fb5d83849aac60f	0.08533050344956215
223	0xbfbb689985445914	-0.10706481460178835
224	0xbfbdf1bc82a8308c	-0.11696985425823153
225	0x3fba0ccc8f6cacbf	0.10175779820990537
226	0xbfb6e39f94dd4104	-0.08941075691587136
227	0xbfb19e1804ca801d	-0.06881857029884526
228	0xbfbe6b296868987a	-0.11882265852963939
229	0x3fb4967d2dcbb832	0.0804212796026327
230	0xbfa4e72733548dd1	-0.04082605840292398
231	0x3fa2e63adbd33304	0.03691276486788378
232	0x3f96ccca967ac187	0.02226559203580927
233	0xbfc065dda5f49979	-0.12810869792265203
234	0xbf5f6c424e5115d9	-0.0019179008024975323
235	0x3fb4f42abe7ac374	0.0818506922758056
236	0xbf671f3cee5ed308	-0.0028225126324862328
237	0xbf972c437f39a6c9	-0.02262978996296886
238	0xbfb73c2462383432	-0.09076144597948213
239	0xbfaee510d8997c55	-0.06034138340032117
240	0xbfbcf905aa40933b	-0.11317477613972653
241	0x3fb6c130400029e9	0.08888532221332181
242	0xbf87e8e711ad24e3	-0.011674695231379711
243	0x3fb9dded3fc67721	0.101042583532458
244	0xbfbb30785121cae0	-0.10620834332238926
245	0x3fba4fe3726e6eba	0.10278150123343269
246	0xbfb3f7ab736f8ccd	-0.07799789016967225
247	0xbf90d8b897908cc6	-0.016451725245258307
248	0x3fbcdac610cc7689	0.11271322164653887
249	0x3f68fc1b42505351	0.003049901237782406
250	0x3fabc5bd5d46f58c	0.05424300922048095
251	0x3faba0ba84dce585	0.05396063682423872
252	0x3f9d3c255ac03bf2	0.028549750961300142
253	0xbfa08da65063fefd	-0.03233070117312129
254	0xbf97f6e2c4b2c360	-0.02340273213912114
255	0x3fb7ba39e6c280d2	0.09268533595832487
