theta2_opt_76-95.npy (npy, 240208 bytes, 1 tensors)

array (column-major) f8 [10, 3001]
0	0x3fa9b3b12a6d44fd	0.0501990665712899
1	0xbfa31be634ac9f9c	-0.03732222931858972
2	0xbf93f09e9db36092	-0.01947257840660705
3	0xbfbea11bdfdd054b	-0.1196458264867221
4	0x3f91629b4a496248	0.016977716836068774
5	0xbfb2eaf8217648cc	-0.07389784638351954
6	0x3fa686feeb11459c	0.04399868602252896
7	0x3fa27fd7bad7f0f9	0.0361316123562307
8	0x3fb382d3eaf58df5	0.07621502386387376
9	0x3fac7d65c8c0d9ad	0.055644207721729934
10	0x3fac3ecab749d5f6	0.055166563867640336
11	0x3fbe50ec9c4b73a1	0.1184223062113703
12	0x3f449537ffc33500	0.0006281398232431956
13	0xbf974e61d64e3d6b	-0.022759941773583686
14	0x3faaffa45b3671e7	0.052731643804893306
15	0xbfb1d10d67adcddb	-0.0695961359140748
16	0xbf9edaf4b50bac01	-0.030132125425478055
17	0x3f7c069acba52b4f	0.0068422362040319725
18	0xbf964e9b0614f1ef	-0.021784231420712116
19	0xbfa8434eb2ee9ac2	-0.04738851484517205
20	0x3fb886c97b2ad311	0.09580668694509266
21	0xbfb0571dd678c66a	-0.063829293118738
22	0x3fa1d937c36a3c16	0.03486036549031028
23	0x3f620ed762e3d168	0.0022043425334407514
24	0x3fb28a771f849ee3	0.072425313181721
25	0x3fa8669555bff229	0.04765764877081253
26	0xbfb8f5c35944cdc5	-0.09750004701054767
27	0x3fb76c3d5c41bf9c	0.0914953565822984
28	0xbfabed866aa93715	-0.05454654743208046
29	0xbfa96795adfa40e6	-0.04961841343640731
30	0xbfb4c807820bfb77	-0.08117720532389493
31	0x3f940f57e9e1b78d	0.019589780473715335
32	0xbf969d9ffe74698c	-0.02208566656654791
33	0x3fb0e6d599fb0f22	0.06602225312513757
34	0xbfb59a2fa5ef729d	-0.08438394356876207
35	0x3fb21c676ee0742f	0.07074591118767225
36	0x3fa10d7711522981	0.033305855621693865
37	0x3f94483cb80f5377	0.019806812986490976
38	0xbfb1a0da7d226f0a	-0.0688606791977088
39	0xbfab6b68701a4231	-0.053553832706829126
40	0x3fb4594cd0f75f40	0.0794876108333229
41	0x3f8779bd6b76ab1f	0.01146266922190403
42	0xbfba59b9851ce20b	-0.10293159007859047
43	0x3fb95958039d48a7	0.09901952827684345
44	0x3fad181e400638dd	0.05682463199183172
45	0x3fb08b2c385af184	0.06462360740528622
46	0xbfa7c5ac5ba03f2f	-0.04643000238877303
47	0xbf9874042b30f7b5	-0.02388006700152064
48	0x3faa3a6fa528e7a6	0.05122708216772702
49	0x3f95674c0f5f3ed8	0.020901859701381337
50	0x3fc0e9ba8fee2e60	0.13213283565379452
51	0x3fadd297364bf139	0.05824730432320497
52	0xbfad9fe176ea1e68	-0.05786041809647885
53	0x3fa1508f3851d000	0.03381774485106348
54	0xbfbb20401ca1ff26	-0.10596085261385876
55	0x3fb9c65a96cc1666	0.10068288976261783
56	0xbfafe26ef7be03e2	-0.06227442526051853
57	0xbf8fc31d9cf1b76d	-0.015508872367913285
58	0xbfb45d036baf1984	-0.07954427126887792
59	0xbfa24d11ef0b2794	-0.03574424784672128
60	0x3fb498822c928886	0.08045209491914038
61	0xbfb6248d977cac2c	-0.08649525593197954
62	0xbfb0cf13e0b7d704	-0.06565975414545383
63	0x3fb38a86db93d1ca	0.0763325010373769
64	0xbfb6684eed268c6f	-0.08752911844071475
65	0x3fbd63cbe371a08d	0.1148040228159763
66	0xbfb5959c35140a63	-0.08431412025314837
67	0xbfb4b0a4991a4bb2	-0.08082035768374743
68	0x3f5abaece3f9a618	0.001631480539709412
69	0xbfb21c703177e7ea	-0.07074643333172018
70	0x3f8b7c9f7362782c	0.01342129298091884
71	0x3f5496ef049b38d7	0.0012566885147183204
72	0xbfb3f854ca0ad85f	-0.0780079835193148
73	0xbfb399da10ae35df	-0.0765663424228573
74	0x3fa738e443635e74	0.04535592386826873
75	0xbfb99cee67ea826e	-0.10005083119404798
76	0x3fb30b5d9756d637	0.07439217514805639
77	0x3fa8f98c2a45432a	0.04877889648435592
78	0x3fa9df953c2fb84d	0.050533927533124336
79	0x3fb152e636392d86	0.06767119239628103
80	0xbfbb3a1ffc63fb07	-0.10635566627386704
81	0xbfb89d31b7e60aa9	-0.09614859332763594
82	0x3fa8916bf91700d6	0.04798448005340254
83	0xbf8d1f38bfd2e8b4	-0.01421970687293981
84	0x3fadf64ac7c47b14	0.058519684682542344
85	0xbfb7e7f38597c459	-0.09338304530662479
86	0x3fb608b59a8daa6f	0.08607039473796772
87	0x3fb4dc5e09f72d59	0.08148753875064098
88	0xbfa00fc87ff2c0b4	-0.03137041627758333
89	0xbfb30cd5e0c11163	-0.07441460358774558
90	0x3f85e13f887e4f6b	0.010683533051441171
91	0x3fa1e39e6796636b	0.03493971838469786
92	0x3fad927e3c392ff2	0.057758278705108426
93	0x3fb76e149d96880a	0.09152344558108907
94	0x3fb767dfce374414	0.09142874512259908
95	0x3fbbb909310833da	0.10829217383452719
96	0xbfa7a85e15841040	-0.04620641720433172
97	0x3fb697f904c345a2	0.088256419813908
98	0x3fa445da0a61840a	0.03959542633743503
99	0x3f999aa7e1541ac7	0.0250040274886725
100	0xbf78c28f0ff76ad9	-0.00604492076623827
101	0xbfb1562ca6f55c42	-0.06772116733678593
102	0x3fbbf257a91b880b	0.10916660193063892
103	0xbfb61ab0d0ce355d	-0.08634476754942484
104	0xbfa6daee1d634ed4	-0.04463905438174512
105	0x3f8eaee21345ecce	0.014982000554246613
106	0xbfa4cbbf1035d2bf	-0.04061696122054092
107	0x3fbe0f2a1dead005	0.11741889219666753
108	0x3f9e2d9b001b3907	0.02947084606312791
109	0x3fbe1be132167461	0.11761291001171649
110	0x3fba1cbc3adff0cb	0.10200096547481789
111	0xbfa014c19761b2fa	-0.03140835736198784
112	0xbfa95d337ac818f9	-0.049539192903511116
113	0x3f92c7c676833ff2	0.01834020708412249
114	0x3faeb00c775305b0	0.05993689495654608
115	0xbfa90b28a2b7648a	-0.04891325937541875
116	0x3f6c63857d5a2092	0.0034654242725232287
117	0xbfb64fc2af6510c8	-0.08715454847430515
118	0xbf7f85da200a09ae	-0.007696010638598967
119	0xbf9f3a429c9e9527	-0.03049568253449766
120	0xbfb9463faa4e9e41	-0.09872815997970809
121	0xbfa01397eefc945b	-0.03139948646848075
122	0xbfa97ef479cfc129	-0.04979671465832986
123	0x3f84dcdb3b06845f	0.010186875094236379
124	0x3f823f979186a4a3	0.008910354736899889
125	0xbfa4684dfce61cda	-0.039858281251378094
126	0xbf91259295eb886c	-0.016744890594857884
127	0x3fb43921a1f11f78	0.07899675563487374
128	0xbfb4b3a0e6a5b5d9	-0.08086591368711228
129	0x3fb82a79992a4c0b	0.09439811696420024
130	0xbf90f08317997522	-0.016542480769534802
131	0xbfa6db98048daae6	-0.04464411788543092
132	0xbfb57c06c9c92f7d	-0.08392374445355517
133	0xbfa977df97fb8f31	-0.049742686560220746
134	0x3fbd83031fe1c869	0.11528033760422009
135	0xbfb1522e41b01dbd	-0.06766022781095322
136	0x3fb6efe6c6158a7e	0.0895981057742947
137	0x3fbc34758c781e06	0.11017546348022486
138	0x3f993a9847bc3569	0.02463758409344533
139	0xbfa4c8015fb029d8	-0.040588419848137824
140	0xbfb896b89db7dd21	-0.09604982233564786
141	0xbfbcf2bb0381e2d3	-0.11307877383832059
142	0x3fade73b954660f5	0.05840479085162712
143	0x3fba4c3c57772654	0.10272576461206856
144	0x3fba8618e7670e10	0.10360866212345621
145	0xbfa937872a0332a9	-0.04925176990363884
146	0x3fabe1818aeb9a42	0.05445484944157332
147	0xbfadec49fb0d220f	-0.058443366905127296
148	0xbfa15f347332091f	-0.03392948061174849
149	0x3f94cb10b8844bdf	0.020305882703791297
150	0xbfadf9fb258a3efe	-0.0585478289914345
151	0x3fafe2d96db7883b	0.06227759804075147
152	0x3fb151f8bfd012bb	0.06765703852586118
153	0x3fb9de82134df6ef	0.1010514542703864
154	0xbfb884113c47b64f	-0.09576518747027161
155	0xbfa014ae0cb5f3e9	-0.03140777497444686
156	0xbfb80eed1aa16963	-0.09397775554808656
157	0x3f8c6db6205285e3	0.013881132947349556
158	0x3f9d19b770ebbae7	0.028418413416995938
159	0x3fb3585abdaf836a	0.07556693202014989
160	0x3fa9c2b7234e6e4c	0.05031368547426193
161	0x3fb7223797b2257b	0.09036586240303805
162	0xbfb1e2b8b0cecf83	-0.0698657447490501
163	0xbf935a552437c634	-0.018899278960765112
164	0xbfa410feba4eb10c	-0.039192161791421126
165	0x3faf71dbb8ba13ed	0.061415544795671774
166	0x3fad6a812a71d13a	0.05745319026110214
167	0xbfb46d4cf8aae178	-0.07979279585823018
168	0x3fba22abff2b60fa	0.10209155063364853
169	0xbfbbc9ba96fa3e00	-0.10854688821768121
170	0x3fb5c38e6638878a	0.08501520152688449
171	0x3faa461e7991e54c	0.05131621583945875
172	0x3f901a17ab9c25ec	0.0157245348446277
173	0xbfb0a019c9aa7745	-0.06494294332011659
174	0x3fb002eca86b9aac	0.06254462348770556
175	0xbf94472da6e9d422	-0.019802773773751288
176	0xbfb0e978e753e980	-0.06606250426913185
177	0x3fb04978163e4faf	0.06362104933788147
178	0xbfb0e5c22bf0fc50	-0.06600583622729173
179	0xbfb89a5b5b5ff7f0	-0.09610529881317098
180	0x3fbba3f11da228cc	0.10797030423615012
181	0x3fb31d98548d05a7	0.07467033447485126
182	0xbfb024094d414e5a	-0.06304987083540806
183	0x3fb73e3f86cf3664	0.09079358140226074
184	0x3fb61ce9888c3f00	0.08637866576850328
185	0x3fae42955cc932d4	0.05910174138680238
186	0x3fbe62c26098a692	0.11869444711978819
187	0xbfa2b87fd741fc37	-0.03656386854799403
188	0x3fbab2c085af5ab3	0.10429003967088128
189	0xbfaeed42f04d2af8	-0.06040391143195295
190	0x3fa9e5f9e1d82f46	0.0505827034176876
191	0xbfa6876c33590f7b	-0.04400194289021805
192	0xbfa45fe5a322fcc4	-0.0397941362039034
193	0x3f9335666539d579	0.01875839226564355
194	0xbfb7215d446bede9	-0.09035284920167154
195	0x3fa8bf3e7a03d223	0.04833407630386357
196	0x3fba158a20e38e94	0.10189116766883394
197	0x3f9cbc2c025779bf	0.028061568873334993
198	0xbfac31c4c57bb301	-0.05506720457728954
199	0xbfa8c96e1fa85e48	-0.048411790241683905
200	0xbfb83b917e61e7e2	-0.09465894065388583
201	0x3fbbaef423628c9d	0.10813833106890276
202	0xbfb7c2b6774e54b7	-0.09281483090156227
203	0xbfb7619486501536	-0.09133270529863044
204	0xbf8f90d7bbf2b82a	-0.015412984297963634
205	0xbf8b071f58ee1ed6	-0.013197178746636434
206	0x3fbc4bdd648c08f6	0.11053260521660832
207	0xbfbab27227f8eeee	-0.10428536868942803
208	0xbfb71582e0bc26f8	-0.09017198549932093
209	0x3fb2615cd7344861	0.07179813627252109
210	0x3fb28dc6d58145ee	0.07247584068797838
211	0xbfae39855dbf7dbf	-0.05903260011086386
212	0x3f963380043bbdd2	0.021680832155593972
213	0xbfb556517976faef	-0.08334836211632156
214	0xbf9a57ba0ec6af41	-0.025725276138174328
215	0xbfb51fd8c31dbc90	-0.08251719249322975
216	0xbf51b30472379d65	-0.0010802787227193963
217	0xbfb1dadd202eb7fe	-0.06974584613519139
218	0x3fbb3dda824cef0c	0.10641256028332807
219	0xbf7de9ec812a83e2	-0.007303165288846865
220	0xbfa20528d5720154	-0.035195613913858864
221	0xbfb5ea7b61899d4a	-0.08560916072166438
222	0xbfa4c29fbacf9cfa	-0.04054736285598355
223	0xbf847960836e1817	-0.009997133265425657
224	0xbfbd525367cdf2be	-0.11453744205750646
225	0xbfb2a52ee3a81ac6	-0.0728329950144185
226	0x3fbd1201f9423254	0.1135560258428055
227	0xbfb8bdecbef70732	-0.09664802229147254
228	0xbfb45d0c4694dac7	-0.07954479907207733
229	0x3f93970e6fc89120	0.019130921910020082
230	0x3fa2166fc22c2e0c	0.03532742734213565
231	0xbfb02e5b6f6f0c5a	-0.0632073542647488
232	0xbf9d5779e81c4454	-0.028654007713218313
233	0xbfafb1565d00dbd7	-0.061899851658772036
234	0xbf81f8ba73311634	-0.008775192871449546
235	0xbfb1b5bfeb8a3f8b	-0.06917953014840188
236	0x3fb7faf3bc601051	0.09367297505383589
237	0xbfa9e67f2ef1e60c	-0.0505866761022383
238	0xbfb8dc0f8a05d571	-0.09710785979935622
239	0xbfb46d3af22bb324	-0.07979172146196994
240	0x3fb75689f5b072b1	0.09116422889969546
241	0x3fa993ea14850fcb	0.04995662212834836
242	0x3fb2e21c840d3a52	0.0737626860038543
243	0x3f8b8c9ec216685d	0.01345180539901863
244	0x3f8a8f7f13f77d5e	0.012969010159337099
245	0xbfb1b386791c5d91	-0.06914558846289355
246	0xbfbe060798a261ce	-0.11727950550483188
247	0xbf9fae90e53e704f	-0.03093935393518193
248	0xbfbd14cc2b90983c	-0.11359859527200994
249	0xbfae89a998373fe6	-0.0596440313635183
250	0x3fb22f182d26d306	0.07103110411010158
251	0xbfa478e69f495886	-0.039984900421289146
252	0x3fad4e8b4bef8992	0.05723986913632752
253	0x3fb05b4346acaf33	0.06389255977108803
254	0x3fb3d7e1fc5f9ee8	0.07751285945380071
255	0x3fa193b52037e159	0.03433004396714762
