theta2_opt_69-05.npy (npy, 160208 bytes, 1 tensors)

array (column-major) f8 [10, 2001]
0	0x3fb49e4f441989a2	0.08054061329452236
1	0xbf8f73b6071fc31e	-0.015357420055779832
2	0xbfb27cb6744ebfe9	-0.07221546496907617
3	0xbfbc45a00cc76e3c	-0.11043739616382536
4	0xbf8545818645da53	-0.010386478338415694
5	0xbfa5a3aa06ced3f2	-0.042264283495946034
6	0x3f8ea25e5625e4cd	0.014958130840329176
7	0x3fbb28397de924c6	0.10608252834312557
8	0x3fa766ae9af44fe5	0.045705276885342795
9	0x3fb62dcee9d72830	0.08663647850986034
10	0xbfbb820ab2273058	-0.10745303010406937
11	0xbfa7bff4770e23a7	-0.04638637498198444
12	0x3f5727c42f0d5c29	0.0014132896287344465
13	0x3fb6e9e28d5224c2	0.08950630140511165
14	0xbf949497b861a6f4	-0.02009808600306591
15	0xbfb48bbfc7183529	-0.08025740252215442
16	0x3fbb89116ec6fab6	0.10756024317286514
17	0xbfb8e4160b132118	-0.09723031778697011
18	0x3fa66a89a5931b0f	0.04378156801390364
19	0x3fa0fbbe680ae1f7	0.03317065258073975
20	0xbfbdf6dbc974114e	-0.11704801243110305
21	0x3fb9550e0e769844	0.0989540849028297
22	0xbfac0b5306887c78	-0.0547738976931606
23	0xbf78b71b893e02f2	-0.0060339999798777345
24	0xbfae807722b57865	-0.05957386301700821
25	0xbfa245ccac489add	-0.035688777952875596
26	0xbfb5f4d047fd2772	-0.08576680905858128
27	0xbfaea962109bcee5	-0.05988604023687375
28	0x3fbc956de9c6533f	0.11165511090650869
29	0xbfabee0e87d4d7c2	-0.054550603943809076
30	0x3f95bc98e4404a15	0.021227253848403366
31	0xbfb8acf44abf66eb	-0.09638907265562195
32	0xbfa06a79adc16334	-0.032062342129114546
33	0x3fb7bba3a75b6aec	0.09270689807764726
34	0xbf8c34c3c70afca6	-0.013772515785033978
35	0x3f9f70a5798e059e	0.030703149360766006
36	0x3f510d78bddf5454	0.0010408095472389705
37	0xbfbb0d5dba46c47d	-0.10567270086063903
38	0xbfb19c1382d5ecec	-0.0687877840445485
39	0x3fbe466ce5f10b2a	0.11826210607345602
40	0xbfb201ed765abd60	-0.07034191264641754
41	0xbfbd38d9f30a562e	-0.11414873298266379
42	0x3fb66d2d80440b53	0.08760342008103565
43	0xbfa7d3acbc14a895	-0.046536825141019346
44	0xbfaffc0b5b3da072	-0.06246982086924015
45	0xbfb66d9c31f67ae8	-0.08761001796527135
46	0x3fbc61375bfce8eb	0.11085840221213387
47	0xbfa3a5d9c3a96c8e	-0.03837471497964727
48	0xbfb73e2677f94a8d	-0.0907920878319521
49	0x3fb9d8822ec5f5ee	0.10095990793157458
50	0x3fbd31019782ea8e	0.11402902554520208
51	0xbfad2e92011fa712	-0.05699592841831537
52	0x3fa32d14b3f954a2	0.03745331475207904
53	0x3faa2f218f0f0b56	0.05114083167383991
54	0xbfa9d800be2ddc77	-0.0504760963585164
55	0x3f9df46ed92e4311	0.029252750402124997
56	0xbfb068bc3f8d8a39	-0.06409813453277814
57	0xbfaae292f726a794	-0.05250987307529367
58	0x3fbe5b2a06ea9044	0.11857855481008622
59	0xbfb18ee2ff23f59d	-0.06858652810111328
60	0x3fa5b35680b7c330	0.042383864605545774
61	0xbf8e518a10917c9c	-0.014803961401581404
62	0x3fb78ec8922e3950	0.09202245301114442
63	0x3fb56400e0fb029c	0.08355718128860662
64	0x3fa96ab4340cbd55	0.04964221129773231
65	0x3f9bba197e0c007d	0.02707710105733029
66	0x3fa620353c209273	0.04321447714781792
67	0xbfb37eea79b61425	-0.07615533324685993
68	0x3f843e5bffaf271c	0.009884566059458026
69	0x3fb028900a431e94	0.06311893702069887
70	0x3fb6863b81aaf2bd	0.08798572459904626
71	0xbfa5019867c0cb45	-0.0410277964259849
72	0x3fbc8de5d0e26464	0.1115401873561424
73	0xbfb91ddb0ec572fe	-0.09811181173922631
74	0xbfb339ad7424e5c7	-0.07509883962202145
75	0x3f899205dcf6604c	0.012485547834146037
76	0xbfbea715a605b154	-0.1197370081260421
77	0x3fb8931881975087	0.09599450267643493
78	0x3fa83c20d26cadfb	0.047333741842830755
79	0xbfbc0773979ede3f	-0.1094887013595036
80	0x3fb19e63bf3bbac9	0.06882308405668448
81	0xbfb9fa0dee65e644	-0.1014717776323773
82	0xbf975b3be75d71b4	-0.022808967586898724
83	0x3fbcd26e847cbeae	0.11258593306115003
84	0xbfb7649ad272781b	-0.09137885702008967
85	0xbfb038a866b7efc0	-0.06336452968383721
86	0x3fbb4b993a73f577	0.10662229229997942
87	0x3f8cf94c3cac5523	0.01414737281951745
88	0xbf8cb3a2a3386530	-0.014014502149665903
89	0xbfbdd3facea16bea	-0.11651580376330598
90	0x3f935607e08fbbfd	0.018882868844169554
91	0xbfacc76f4283bd42	-0.05620906531282312
92	0x3fb2d1360815f3ed	0.07350480744749151
93	0xbf92769bef0ff4ed	-0.018030582872587898
94	0xbfbe253f5dc7d067	-0.11775585212291305
95	0x3f50c9eadd3ffced	0.0010247033687845145
96	0xbfae4cbabdd9255b	-0.05917914931758147
97	0xbfb8d30e518ee8b5	-0.09697045794647148
98	0x3f9df97b6f9efe99	0.029272011459169
99	0xbf9df8ca79bf174f	-0.029269374543012202
100	0x3fa0e37b867c039a	0.03298555390029563
101	0x3fac40b2e90ffab7	0.055181113195421565
102	0x3f7697e7e37f5760	0.005515962424359561
103	0x3facc041a9051ea5	0.05615430057747276
104	0x3f9edd63bd373d1f	0.030141409324469067
105	0x3fbca9a503524af9	0.11196357089128729
106	0x3fb05788920d75c8	0.0638356548856428
107	0x3fb010a35fbb8989	0.06275387847157367
108	0xbf6c16901b3ae548	-0.003428727586506728
109	0x3f9b4fead0c0d7ed	0.02667204760674473
110	0x3fa8cb4d01c37d93	0.04842606207398172
111	0xbfbb2aa5746ad1ab	-0.10611948101251893
112	0x3f948e55237b2035	0.020074205675683927
113	0xbfb80541d225c5c5	-0.09383021717601199
114	0x3faa59f2b5f08e79	0.05146749945586477
115	0xbfa94ae4479edc37	-0.049399503462546006
116	0x3fb42e01bd090a5b	0.07882700791473367
117	0xbfb6ade73201b24f	-0.08859105082383077
118	0x3fb9c16ab549a698	0.10060755659074017
119	0x3fb68c75b89c162b	0.08808074719498708
120	0xbfb057cdb3fc5941	-0.06383977550681143
121	0x3f9ae2fc07cf6862	0.026256502129264787
122	0xbfb79adf5f030380	-0.09220691747306198
123	0x3fbd0b179d11eaa4	0.11345050415722341
124	0x3fa247969fe27f82	0.035702425973112475
125	0xbf822a59a5c0dfb7	-0.008869839068310499
126	0xbf87270fa06b11ae	-0.011304971774173857
127	0x3fb3b849e3351f9b	0.07703077122744022
128	0xbfa7c0c2d1c96ff3	-0.046392524822948554
129	0xbf4d0e1972dc64c0	-0.000886690546141676
130	0xbfb43297041cc948	-0.0788969407119896
131	0x3fc0cf730d5c3e34	0.13133085396155908
132	0xbf65aa93d7b68f96	-0.0026448142577510476
133	0x3fb847cb910f2cff	0.09484550754057251
134	0x3fb2f6c922197821	0.07407815058238089
135	0xbfae618652b3b1db	-0.0593378044085033
136	0x3fb223afb4b654bc	0.07085703050536812
137	0x3fbcc8d00e6c157a	0.11243915893654402
138	0x3f964a0e1149b240	0.021766872220199796
139	0xbfad7acd8c3a127c	-0.057577536933455215
140	0xbfa1fcda8b2f0535	-0.03513224553126763
141	0xbfa37e02f2dbe252	-0.03807076658808185
142	0x3fb1330dbaabd417	0.06718526656534639
143	0x3fba91431db27f7b	0.10377902483969408
144	0x3faa4e03d438e48a	0.05137645688632471
145	0xbf85ad9f79eb8eaa	-0.010585065754134721
146	0x3fb91136136fa59c	0.09791887259020488
147	0x3fa10f7bee9963aa	0.033321259380222415
148	0xbfb6ad61cd5f418d	-0.08858309997527254
149	0x3f8eac0e33c1f938	0.014976607279319695
150	0xbfb61e62f36cf66a	-0.08640116160401026
151	0xbfad4b9c60ca46d3	-0.0572174900199919
152	0x3f9221d83d20a919	0.01770723221867696
153	0xbfa7d26576af984f	-0.046527071702982974
154	0x3f9fec6bc907cb3f	0.03117531218044722
155	0x3fa99145e4b16958	0.04993647019064679
156	0x3fa13fad6cce7297	0.033688945323978085
157	0xbfa4979859be333b	-0.04021907897467832
158	0xbfbc706179cbee41	-0.11108979438352497
159	0x3fbc50a13b2198ab	0.11060531324037252
160	0x3fb91863f8ced0da	0.09802841972743029
161	0xbf811572fc22653f	-0.008341692275552702
162	0xbfb8b14cbb7904b5	-0.09645537926646137
163	0x3fa5ec69a2a2f582	0.042819310286613024
164	0xbfa5d5d920897a76	-0.0426471569269226
165	0xbfa6e5457a3a6113	-0.04471795193711805
166	0x3fb6b4af922ef442	0.0886945468800642
167	0xbfa0e8df7e1742b2	-0.03302668012805067
168	0xbfa398891d318f2f	-0.03827312928549841
169	0xbfa3c9118bdbc1e7	-0.038643406221925684
170	0x3fae1d9533f2bff1	0.058819449035013245
171	0x3fb30e14973b01ed	0.07443360035086473
172	0x3fbb56451e621ee6	0.10678512565402407
173	0x3fabeec63edfbe5f	0.05455607907776704
174	0x3fa31062bd0c9753	0.03723438794831559
175	0xbfbd7e71b25f6b56	-0.11521063427737252
176	0xbfa3980a6a72a9ee	-0.038269353384141044
177	0x3fb8e254b5a2d8f5	0.09720353540874156
178	0x3fb69a6c0ad31a72	0.08829379333756451
179	0xbfb4a76501e80adb	-0.0806792382864318
180	0x3fa1ab939d1f8466	0.03451215069777262
181	0x3f8e9a6d4fe3e2a4	0.014942983627848357
182	0x3fb5b560280f8740	0.08479882219355961
183	0xbfb91bad03af24d0	-0.09807854976601793
184	0xbf26994fef2624ea	-0.00017241574057561628
185	0xbfb266fc12870157	-0.07188392116859653
186	0x3faa72c7ff67a242	0.05165696137175192
187	0xbfa4cca2134026c2	-0.0406237267016656
188	0xbfbd3c30830301ba	-0.11419966887024816
189	0x3faaeb1fa84e40c2	0.05257510118019716
190	0x3fbc29242136df50	0.11000276385209173
191	0x3fa408d7a0f597e4	0.03912996139369776
192	0xbf9eb6ca927e8bcf	-0.02999416846399666
193	0x3f87fd420064c854	0.011713519703878607
194	0xbfb756746ec81ca3	-0.09116294579154043
195	0x3fbe78d2094fcbd9	0.11903107383095292
196	0x3fb26b1fa85ad70e	0.07194707737184222
197	0x3fa80917066ef12e	0.04694435075313873
198	0x3fbd1f2815407805	0.11375666159480609
199	0xbfbd78ff882d84ca	-0.11512753557828428
200	0x3fb3c5392c637556	0.07722813924506985
201	0x3f81acea34fe45cc	0.008630590193010067
202	0xbfb3283b8c238460	-0.07483265086513446
203	0xbf9257c59a05fafe	-0.017912948156204138
204	0xbf770f978198b3fc	-0.00563010389445839
205	0x3fb1b96236e81691	0.06923498001568819
206	0x3fb8a493c0022883	0.09626124799447848
207	0xbfb7c29f106cda87	-0.09281343604093638
208	0xbf89b744b8868bc8	-0.012556588059686194
209	0xbfa4a4f475dd4860	-0.04032100619100798
210	0x3fa1a492a1e8c551	0.03445871569091231
211	0xbf9d5fa554fd17c9	-0.028685172378821542
212	0x3fbba3b0d6bdde2f	0.10796647303310956
213	0x3fb58a73dd421cdc	0.0841438689404756
214	0x3facce58e0cc1e50	0.05626180404766201
215	0xbfb427e190efa196	-0.07873353756406795
216	0x3fb254e5681a1a06	0.07160791198302982
217	0x3fbd336484baab01	0.11406543961008354
218	0xbf6ac5332a024990	-0.0032678603457238567
219	0x3f342e894dbd0eba	0.00030794956341060784
220	0xbfb887ace478fd43	-0.09582024171776475
221	0x3fbd1bd66b74e1e8	0.11370601771785227
222	0x3fb201001e1a042d	0.07032776579764351
223	0xbfb215914089d1e6	-0.07064159227031261
224	0xbfad5ec982086cd6	-0.057363793490560575
225	0x3f8179ad87cfcba0	0.008532863337654295
226	0x3fa66f75f7cd302d	0.043819128512581386
227	0x3fba94ff0c166c4d	0.1038360027800291
228	0x3fae3a60eca1f025	0.059039143453418576
229	0xbfaf09a10d672da1	-0.06062033928500488
230	0x3fb601fc25ef5ac6	0.08596778799197144
231	0xbf850a2987bf87ed	-0.01027328916092426
232	0x3fbe09fa03592dbe	0.11733973104235582
233	0x3fb34f88592be2cc	0.07543232132946825
234	0x3f9566a391580f38	0.02089934897050158
235	0x3fa12fafd10d587b	0.03356694628625775
236	0xbf88b48748bed572	-0.012063080699457916
237	0x3fa99d039a86bf03	0.050026047337608424
238	0xbfbac45da1b4371a	-0.10455880353785255
239	0x3fb6d9dc5eace5e3	0.0892617922917434
240	0x3fb238f36792da7c	0.07118150023129916
241	0xbfb13262fb579141	-0.06717508922844663
242	0x3fab371d51e5b86e	0.05315486550067382
243	0xbf8d2f20fe5e5de2	-0.01425004745742248
244	0x3f8a7efa63694038	0.012937503966128458
245	0x3fb2dd7f3f389f86	0.07369227689252797
246	0x3fb94a09ad7739c1	0.09878597722056438
247	0xbfbd5e14622aefb3	-0.11471679112122395
248	0x3fb5cd99b1d595f7	0.08516846267374222
249	0x3f569115605f15bb	0.0013773640398409964
250	0xbf97b8f093c389f3	-0.023166426676548068
251	0x3fb76b8108b76dd0	0.09148413145833634
252	0x3f83421924a77719	0.009403416091057036
253	0xbf88484e8617e711	-0.011856664149479753
254	0x3f94f444c21832d3	0.020463060709562008
255	0xbfbb489835dab9fa	-0.10657645525746054
