theta2_opt.npy (npy, 160208 bytes, 1 tensors)

array (column-major) f8 [10, 2001]
-0.053589404117947 0.11950729561095987 -0.074132976547371 0.08614905227874875 0.03567048178823249 0.004907748335604868 -0.11816374055130892 0.0798815598083355
0.0375050431127353 0.028534193634644864 0.06417324080740551 0.11448761079464756 -0.1107398094921776 0.041713552051990156 -0.051636948532239026 -0.08709287868820254
-0.06735466547946253 0.07485006950930956 -0.10838401808495773 -0.017940599304593904 -0.08402065979190651 0.09703576273946744 0.06797363861071183 -0.016239963300406068
-0.11657449125456289 -0.025236981419169184 -0.06725429454571573 0.08797950083082308 -0.04183031331710083 -0.04689478290572663 0.08882145011473307 0.04388302589745685
-0.09691331712929804 -0.024786868929172937 -0.007238788284225623 0.0011786665310213784 0.10707093692926102 -0.0483729678927036 -0.10019172530673662 0.0634056377169935
0.005849211945657411 -0.06112297733471355 0.025395565915176395 -0.0328901092390693 -0.10547489829018297 -0.07922969082689595 0.04559994538755229 0.10516594303460407
-0.09286726607620953 0.07478331718421476 0.06146200148843926 0.0012620961627549101 -0.10180163819442292 0.11707222896794264 0.06198516101599792 -0.030839513427517156
-0.05317665544121963 0.09404118689086949 0.06771104253122666 0.047680816847121665 -0.028553353989551427 0.08251481102660821 0.05743825241756535 0.04209599435923045
-0.09165010387778255 -0.059539077406363564 0.03770126670014237 -0.08781382741050084 0.09537059987466077 0.005078723954723087 -0.0016898300911414633 -0.11053481973648514
0.003804046853797173 -0.03420489421564686 0.018909416506928855 0.05914163812893136 0.1063840335634804 0.024802733134605588 0.04988918521408913 -0.06993478200369534
-0.030777682059971376 0.09450752345029263 0.01238416351167643 -0.10246271989673222 -0.021023888994033024 -0.0681471407164861 -0.0541889067330237 -0.014630552224292971
-0.10648186844508926 0.0740888139573386 0.08486899686925774 0.06446554884746389 -0.0990906354338806 -0.05870148538048751 0.10396394269642192 -0.035519784641045306
0.05190245612642125 0.021563618493666503 -0.103071646504762 0.007527325211042922 -0.08170871172378624 0.0012605247618843807 0.08303761536524024 0.049886212790380795
-0.1113603058592819 0.06177201314976451 0.11943655957109502 -0.02764497878798331 0.02184654287284819 0.06581058800474719 -0.049052626886429834 2.111189809386373e-05
0.11057279701241426 -0.013197768541634026 -0.11185948417296343 0.058878551728870146 -0.11959539012812692 -0.05467265637998955 0.032333279743996926 -0.00011963128905201818
-0.09400294589379947 -0.04601588233416996 -0.03616785062296697 0.015434606885690951 0.01122662381370971 -0.08031959202179621 -0.10347173655148138 -0.09810451319796168
0.014206520593915549 0.04785859382008312 0.028360001061130635 -0.037560293151345014 0.02457235677869343 0.016182634207478813 -0.09610529147127966 0.056257655375295645
0.10949280529841376 -0.00676544020831722 0.05088201267092054 -0.0028432374906561275 0.1178869250197805 0.039266524854359164 0.028285130705383046 0.07108458710991564
0.024343216631223113 0.07102664448452663 0.10944289053017388 -0.10816015365569401 -0.10013444034983036 -0.07128686378749062 -0.004964749582932768 0.08104317837791086
0.05438001059629847 -0.0015203081584142918 0.07893723052653724 -0.09687953066944416 0.07416430391423183 0.009868797194185036 -0.04107419606861106 0.05412464100671684
-0.041502376000529674 -0.08365017932392975 0.06578570080199211 -0.019042303437764495 0.08164520490792954 -0.09075346682142492 0.08345728781626707 -0.0456608674714952
-0.0018407373267517136 0.06521982171336069 -0.06121787527196296 0.027978498581998662 0.032018760734460215 -0.0026449292184432035 -0.09059561824009615 -0.08640970434744884
0.014874818019360428 0.09961448275309388 -0.037583937539046625 0.08394428189324774 0.06792881061161853 0.06345168984496334 0.07696350684150507 -0.04751194758053965
0.07969619899028561 -0.06907398415732736 -0.07677231921715279 -0.1129074711460105 -0.10474958295674903 0.11210257228570299 -0.00026297451859584424 0.012565586675700994
0.05733881748923375 -0.10516507092426405 0.11831715260628196 -0.08563773100647451 -0.09099921570805607 -0.04277832316799121 -0.028583812135280807 -0.03728962446001801
0.016658965426907358 0.10152906235027079 -0.04866587834365002 0.017433378642217643 0.07905793558956871 0.033285049616786105 0.05100851735816206 0.037566302816150914
0.01191804659622781 0.11641391063551415 -0.031210124810472403 0.07232379521370533 0.03507945166976764 -0.11791676489538067 0.06683828514364445 -0.081002556026375
0.0221554243277253 -0.013533297378811072 0.10594879196141203 -0.06313443234503206 -0.01671809843796705 -0.03030753660665013 -0.04754637756763626 0.05508752733113557
0.03223195344832552 -0.08850351494998956 -0.0038078836101882864 -0.10271882964353156 0.0946393992881965 -0.008868366076428932 0.10099049720405412 -0.08468934936821756
0.08456798652132343 0.0677544805525188 0.11800766010496307 -0.019171140179385947 -0.10808666382210243 0.0698939568036622 -0.1012049914674178 0.03487745950285266
-0.10058185694435634 0.04275514215887328 -0.047925442428466754 0.09565203676124825 0.06882482641377978 0.02203490685868066 0.09625092347387969 0.11129141800344558
0.05743700741312332 0.02191383677650651 -0.02691315629869174 -0.03127782011318228 0.030542163437166172 -0.051886374028583274 0.07471121996953374 -0.02848004159987325
00000000: 218a 3204 1270 abbf 6950 48b6 0798 be3f
00000010: dc7a d3f5 60fa b2bf e45d 1e42 dd0d b63f
00000020: 3d11 6dc1 6643 a23f 4122 93a9 251a 743f
00000030: adab 3d99 fa3f bebf 1c26 ee2e 1e73 b43f
00000040: a362 356b dc33 a33f 0c04 ea51 1138 9d3f
00000050: c9cf 8b52 a86d b03f 1202 2960 0f4f bd3f
00000060: 2c59 22b4 7159 bcbf 5501 ba8b 7a5b a53f
00000070: a522 6c7a 2870 aabf cc29 ae09 b84b b6bf
00000080: bea1 77c5 273e b1bf e453 a5c8 5f29 b33f
00000090: cc7e 1515 0ebf bbbf 1faf 223d 055f 92bf
000000a0: d69c fec1 6082 b5bf 5728 82f3 55d7 b83f
000000b0: a9b8 d26a b866 b13f d3ce 0d7d 35a1 90bf
000000c0: a976 7c6b d3d7 bdbf 9e5f 6127 b9d7 99bf
000000d0: efe2 96d3 9337 b1bf 116b c916 d385 b63f
000000e0: cd54 5b67 c86a a5bf 58c1 ddcd 9702 a8bf
000000f0: 2f13 6da7 00bd b63f 907f 2802 d677 a63f
00000100: 9601 9ea7 4fcf b8bf 2424 af9d ba61 99bf
00000110: 6e3c 186f 6ba6 7dbf d237 088d af4f 533f
00000120: dd97 763c 0069 bb3f 1d20 3876 57c4 a8bf
00000130: 22b2 8537 2aa6 b9bf 0963 6014 5a3b b03f
00000140: c539 39e0 57f5 773f e79c 5fc9 824b afbf
00000150: d2c0 4694 4b01 9a3f ed5b 16ef f8d6 a0bf
00000160: 108c b426 6700 bbbf 0345 f9a2 6548 b4bf
00000170: ef20 4744 e058 a73f 5b93 fcbd 27ec ba3f
00000180: 5f8f aa2e 26c6 b7bf 73b4 97dd ff24 b33f
00000190: 7dd9 ad8c f277 af3f fc82 946f 9dad 543f
000001a0: d269 b912 ac0f babf 3ee8 af12 72f8 bd3f
000001b0: 8e50 cdde 84bc af3f 6b09 62b6 6494 9fbf
000001c0: bfb7 0f78 f839 abbf f05d 2c4e 1513 b83f
000001d0: 43eb 3fc9 8255 b13f 4089 02ba 9e69 a83f
000001e0: 6b10 4e26 173d 9dbf ba7e cbce b01f b53f
000001f0: fa7d 58ef 8b68 ad3f 9888 212e 9b8d a53f
00000200: 0c80 d496 6176 b7bf 42b4 96ec e77b aebf
00000210: 9c61 fd96 944d a33f 4a5c dd8c f77a b6bf
00000220: 6f29 7627 356a b83f 82b8 a794 6dcd 743f
00000230: 9540 8b3e a9af 5bbf b763 d68b 024c bcbf
00000240: b659 8b1a aa29 6f3f 4ee7 09cc 4d83 a1bf
00000250: 934f ef75 fd5c 933f 00f6 3013 d047 ae3f
00000260: 4bc2 f8e8 fb3b bb3f e57e a83e e365 993f
00000270: af52 d645 138b a93f f30a 8ff1 3ee7 b1bf
00000280: acb9 9347 2f84 9fbf e5e8 7122 a531 b83f
00000290: a2f0 2a4a de5c 893f 2c03 042f ff3a babf
000002a0: 730b a84e 4987 95bf b976 b14c 1772 b1bf
000002b0: 83db 72fc a5be abbf 3427 9b7a 9ff6 8dbf
000002c0: a3b0 964e 6542 bbbf 023a f208 7cf7 b23f
000002d0: 0f6f ff7d f9b9 b53f 8ebf 0470 d080 b03f
000002e0: a543 87fe 005e b9bf 4523 dfff 1e0e aebf
000002f0: 5627 d885 619d ba3f 7ddb c932 a62f a2bf
00000300: 8844 4a6f f592 aa3f 00d9 daf0 c514 963f
00000310: da00 e246 e762 babf 727d b9f9 f8d4 7e3f
00000320: 70e6 a6b4 dcea b4bf 1fa7 3228 06a7 543f
00000330: 68df 5402 f441 b53f 8776 e988 af8a a93f
00000340: e7f8 bce7 1b82 bcbf 9a98 92d0 94a0 af3f
00000350: d9fa 4df5 6493 be3f ba08 2c1f f74e 9cbf
00000360: 2b9d adac f05e 963f cbfe 3573 f6d8 b03f
00000370: ac2c 8508 6d1d a9bf cc9b 0497 2e23 f63e
00000380: 66dd feb2 7f4e bc3f 87c8 2182 6e07 8bbf
00000390: e032 45ba d2a2 bcbf c201 395c 5425 ae3f
000003a0: 5848 5ab1 cd9d bebf 8366 46ee 0dfe abbf
000003b0: 5251 25d6 fc8d a03f 5b21 6fe5 515c 1fbf
000003c0: 436e 57ba 9310 b8bf 8d95 71cb 648f a7bf
000003d0: 3a3c 2faf 9784 a2bf eebf 67de 2d9c 8f3f
000003e0: e5b9 fef0 fbfd 863f 7b30 f624 d38f b4bf
000003f0: 5b87 8cac 1f7d babf 8276 c69b 601d b9bf
00000400: acfe b9ea 4e18 8d3f 4861 94ee eb80 a83f
00000410: b3cf 4974 670a 9d3f 8028 6d4d 1a3b a3bf
00000420: a722 00f3 7e29 993f a8ac bc32 2e92 903f
00000430: 4079 d73b 5b9a b8bf e81a f9ab cdcd ac3f
00000440: 686b e771 b807 bc3f ce16 0107 14b6 7bbf
00000450: 53a5 c008 350d aa3f 8529 3081 b34a 67bf
00000460: 9101 9667 d62d be3f 4872 27f0 bd1a a43f
00000470: 37ee 5efd c6f6 9c3f 1a02 e378 9932 b23f
00000480: ebff 3d9d 6ded 983f 2da6 345b cd2e b23f
00000490: 9157 9b03 7304 bc3f 7279 ae42 62b0 bbbf
000004a0: 137b 8122 69a2 b9bf a107 9a1c db3f b2bf
000004b0: d7e3 76d1 ea55 74bf 0070 b2e8 3ebf b43f
000004c0: ad6c 225e b2d7 ab3f b8ab 7e74 a2e8 58bf
000004d0: c15c 8cf7 3a35 b43f 1489 e0cf 18cd b8bf
000004e0: 6b9c d78b 6efc b23f 5d5b 9989 1736 843f
000004f0: 6ffa a551 ad07 a5bf 7a2c 1096 39b6 ab3f
00000500: f5d3 41a7 cc3f a5bf 5335 8020 196a b5bf
00000510: ea2e 7de9 54d7 b03f 06d8 055a d37f 93bf
00000520: 346c f43c b3e6 b43f df23 ff83 9e3b b7bf
00000530: 4aa2 c8f1 745d b53f ec7e fe78 dc60 a7bf
00000540: ec77 9ca7 9c28 5ebf 5651 4f09 3fb2 b03f
00000550: 3c87 7208 f357 afbf c87c 9a41 65a6 9c3f
00000560: 8308 6d54 c364 a03f 4c54 ca8f d1aa 65bf
00000570: 8c8a 8041 4631 b7bf d5b4 3a46 f21e b6bf
00000580: c8b5 6a47 b076 8e3f 25eb a1b1 5580 b93f
00000590: cc93 2bad 333e a3bf a6ee 6a59 5f7d b53f
000005a0: e377 0854 c863 b13f d392 c2b4 5e3e b03f
000005b0: 0ea7 de60 e1b3 b33f 9d2c 0e6a 7c53 a8bf
000005c0: 735e 4758 f866 b43f f1cb f526 d5ae b1bf
000005d0: 2197 46c8 59a7 b3bf 5fd2 0b08 81e7 bcbf
000005e0: dda1 1161 ded0 babf e1ba c311 c1b2 bc3f
000005f0: e042 01f5 fa3b 31bf 5515 9e7e fcbb 893f
00000600: 40ad d073 835b ad3f b61d 4d1c 19ec babf
00000610: 59f4 ff6c 084a be3f d6f8 f9b5 5aec b5bf
00000620: 0b81 6d7f b94b b7bf 7cee f755 0ae7 a5bf
00000630: ba9f 4329 1345 9dbf 5b61 122b a017 a3bf
00000640: 7d69 c63e 0c0f 913f 3651 6302 cffd b93f
00000650: 048d d5e7 bbea a8bf 0929 823c 0eda 913f
00000660: 65b2 d80f 243d b43f cc83 19ef bc0a a13f
00000670: 84d3 bdd3 c91d aa3f 0fd3 0df4 e33b a33f
00000680: e36d e722 7d68 883f bc9f fa52 4dcd bd3f
00000690: 8cd1 7505 8cf5 9fbf f65b 2aef cf83 b23f
000006a0: dcd4 5d13 eff5 a13f 2c33 e008 cb2f bebf
000006b0: 820b d058 501c b13f 8393 0661 95bc b4bf
000006c0: b994 aa5b e9af 963f d439 316d 58b7 8bbf
000006d0: 9764 86c4 751f bb3f 6366 2c02 9429 b0bf
000006e0: eb64 2b98 8c1e 91bf cc08 315a f008 9fbf
000006f0: f27c 64b1 ff57 a8bf 0506 9cb0 6e34 ac3f
00000700: c0bc e4e3 b480 a03f 828f 4a96 2aa8 b6bf
00000710: 5fd4 53f2 b531 6fbf e39a 00fe c74b babf
00000720: 951b dba4 493a b83f 3e43 23f2 9329 82bf
00000730: b4bc b262 83da b93f a623 db81 33ae b5bf
00000740: 95cc 6560 3fa6 b53f d36a 218e 5b58 b13f
00000750: 7d0b d400 c035 be3f 86d5 6370 99a1 93bf
00000760: c9ea 3f4e 91ab bbbf 6ae6 a802 92e4 b13f
00000770: 9165 8b00 92e8 b9bf 9a58 dd57 75db a13f
00000780: 3c9f 258a bbbf b9bf 49cb 9d82 00e4 a53f
00000790: 21d1 c0ff ae89 a8bf 2a73 afe1 a67c b83f
000007a0: 9b9d 99fa 809e b13f 7452 5091 5190 963f
000007b0: 6bb5 8788 e6a3 b83f ba77 a628 987d bc3f
000007c0: 53c5 d628 6268 ad3f 26d1 23b1 9470 963f
000007d0: 0242 8a58 1f8f 9bbf 24dc f37c a503 a0bf
000007e0: 9765 72e4 7146 9f3f ba1f 1fcf d990 aabf
000007f0: 35d5 6946 4620 b33f 596b 0a3d df29 9dbf
